reference_code/Python/FSRCNN_16_12_4/layerwise_int_qat_nobias.pth (torch, 21519 bytes, 8 tensors)

first_part.0.weight i1 [16, 1, 5, 5]
000000 05 f1 17 0a e7 f9 f5 80 7a 15 16 67 80 80 03 d9
       5 -15 23 10 -25 -7 -11 -128 122 21 22 103 -128 -128 3 -39
000010 7f 6c be f9 0e b8 4d ee 04 fe ec 1f e0 12 11 4a
       127 108 -66 -7 14 -72 77 -18 4 -2 -20 31 -32 18 17 74
000020 7f a5 ed d7 49 80 7f 0c 23 d7 6a 26 f8 f9 0c f3
       127 -91 -19 -41 73 -128 127 12 35 -41 106 38 -8 -7 12 -13
000030 03 00 fb 20 db 06 1a ff b6 4c 1e e7 e9 69 80 7f
       3 0 -5 32 -37 6 26 -1 -74 76 30 -25 -23 105 -128 127
000040 fa 29 ed 7f bd 0b eb 0d 08 f6 13 04 09 df 09 08
       -6 41 -19 127 -67 11 -21 13 8 -10 19 4 9 -33 9 8
000050 f3 fd 80 f9 ef 0d f2 7f f1 09 02 09 da 11 08 fa
       -13 -3 -128 -7 -17 13 -14 127 -15 9 2 9 -38 17 8 -6
000060 05 fd fc fe f7 05 2b f6 f4 1b f9 7f 24 16 e9 f7
       5 -3 -4 -2 -9 5 43 -10 -12 27 -7 127 36 22 -23 -9
000070 80 fd f1 f7 0f 2a e7 f3 0d f2 fc 0d 00 0b f7 08
       -128 -3 -15 -9 15 42 -25 -13 13 -14 -4 13 0 11 -9 8
000080 04 f9 17 f0 f5 f8 0e f2 d5 7f 7f ed 0f 1b 1a dd
       4 -7 23 -16 -11 -8 14 -14 -43 127 127 -19 15 27 26 -35
000090 ff eb 23 d3 22 f5 fe fa 24 e9 fd ef 11 a3 59 f3
       -1 -21 35 -45 34 -11 -2 -6 36 -23 -3 -17 17 -93 89 -13
0000a0 06 16 7f 80 1b 28 d9 ea 19 06 d8 12 34 de ef ca
       6 22 127 -128 27 40 -39 -22 25 6 -40 18 52 -34 -17 -54
0000b0 59 b2 0e 0f 36 80 7f 80 2d 14 e6 b2 7f b5 c3 68
       89 -78 14 15 54 -128 127 -128 45 20 -26 -78 127 -75 -61 104
0000c0 80 3d ea 1a da 3d b6 27 f8 01 2f 05 ff fc 3f ae
       -128 61 -22 26 -38 61 -74 39 -8 1 47 5 -1 -4 63 -82
0000d0 e1 e9 ff ef 7f 6b fc fc df 7f 9a 24 15 f1 fa 03
       -31 -23 -1 -17 127 107 -4 -4 -33 127 -102 36 21 -15 -6 3
0000e0 01 0c e9 d8 1d 09 e8 58 09 24 ff da 41 7f ca f3
       1 12 -23 -40 29 9 -24 88 9 36 -1 -38 65 127 -54 -13
0000f0 25 f0 4a ef 06 0b 03 d5 11 0a 01 fa 0f f1 04 0e
       37 -16 74 -17 6 11 3 -43 17 10 1 -6 15 -15 4 14

mid_part.0.weight i1 [12, 16, 1, 1]
000000 eb d2 04 42 e8 3a 18 ee 1e 0c 60 23 37 f7 09 ed
       -21 -46 4 66 -24 58 24 -18 30 12 96 35 55 -9 9 -19
000010 22 1d 27 2b 40 1f c4 2f 16 e8 a0 18 b3 e7 2b 07
       34 29 39 43 64 31 -60 47 22 -24 -96 24 -77 -25 43 7
000020 fc 1a 34 c5 d3 e2 08 d3 1d 0b e4 2f 12 e0 2e ee
       -4 26 52 -59 -45 -30 8 -45 29 11 -28 47 18 -32 46 -18
000030 38 4b ee 7d bd e4 37 7f 32 18 80 10 d7 a4 eb 67
       56 75 -18 125 -67 -28 55 127 50 24 -128 16 -41 -92 -21 103
000040 fb 47 1a 13 51 f1 ec 1f cc 3a 6b d8 0f fd fc 43
       -5 71 26 19 81 -15 -20 31 -52 58 107 -40 15 -3 -4 67
000050 15 06 a4 f5 e8 12 5b 75 1e 23 80 37 bd e2 d5 11
       21 6 -92 -11 -24 18 91 117 30 35 -128 55 -67 -30 -43 17
000060 00 f8 f5 41 f7 01 15 0f 20 5a d3 eb f6 01 0c 4c
       0 -8 -11 65 -9 1 21 15 32 90 -45 -21 -10 1 12 76
000070 0e df d4 53 d4 1a e1 ce ca 1a 2a 45 07 45 2d f7
       14 -33 -44 83 -44 26 -31 -50 -54 26 42 69 7 69 45 -9
000080 03 ed d2 de e2 16 35 31 2a 04 10 27 ea 33 09 19
       3 -19 -46 -34 -30 22 53 49 42 4 16 39 -22 51 9 25
000090 7f 1c 32 1e 10 25 80 7f e5 b2 f9 98 96 61 0a d6
       127 28 50 30 16 37 -128 127 -27 -78 -7 -104 -106 97 10 -42
0000a0 f5 06 40 ff d9 41 e0 c1 24 fe 01 b8 38 34 f7 24
       -11 6 64 -1 -39 65 -32 -63 36 -2 1 -72 56 52 -9 36
0000b0 f6 f4 b4 15 11 0c 1d 0e 21 25 d1 0f dd 41 29 cb
       -10 -12 -76 21 17 12 29 14 33 37 -47 15 -35 65 41 -53

mid_part.3.weight i1 [12, 12, 3, 3]
000000 fc 41 ff fe 5f d6 0b 14 15 f1 44 09 10 1d 02 e0
       -4 65 -1 -2 95 -42 11 20 21 -15 68 9 16 29 2 -32
000010 d6 e2 1a 16 03 fb 1e 5d fd f4 f8 f9 c4 ca 24 f2
       -42 -30 26 22 3 -5 30 93 -3 -12 -8 -7 -60 -54 36 -14
000020 c2 16 0a 49 15 04 dd dc f0 51 44 22 22 23 65 37
       -62 22 10 73 21 4 -35 -36 -16 81 68 34 34 35 101 55
000030 d3 e0 40 ad 66 ed 0a 43 f9 03 51 41 fa cc e3 dd
       -45 -32 64 -83 102 -19 10 67 -7 3 81 65 -6 -52 -29 -35
000040 f2 e4 d2 5a eb 0f 13 f6 28 e3 e9 00 7f f9 d7 06
       -14 -28 -46 90 -21 15 19 -10 40 -29 -23 0 127 -7 -41 6
000050 09 2f 1e 28 ff ed cd 0f f2 f8 e4 ff ee 3e 13 f4
       9 47 30 40 -1 -19 -51 15 -14 -8 -28 -1 -18 62 19 -12
000060 ee e2 12 e5 26 e8 ff 68 ff 09 ea 04 bf 28 06 80
       -18 -30 18 -27 38 -24 -1 104 -1 9 -22 4 -65 40 6 -128
000070 7f ca b0 5c 46 ac f4 20 02 f2 24 62 01 c3 80 43
       127 -54 -80 92 70 -84 -12 32 2 -14 36 98 1 -61 -128 67
000080 ec e1 2c 53 97 eb 21 ec 12 09 5e 7f f5 7b cd 29
       -20 -31 44 83 -105 -21 33 -20 18 9 94 127 -11 123 -51 41
000090 04 09 24 60 b6 7d d8 e9 3b 76 da 1a 11 95 0d 3f
       4 9 36 96 -74 125 -40 -23 59 118 -38 26 17 -107 13 63
0000a0 7f a1 cc 1a 04 80 f3 1a 3e a1 5d 5c d7 3b 80 7f
       127 -95 -52 26 4 -128 -13 26 62 -95 93 92 -41 59 -128 127
0000b0 f0 80 49 fe 7f 4d 09 80 7f 09 ae dc 83 e7 fd 22
       -16 -128 73 -2 127 77 9 -128 127 9 -82 -36 -125 -25 -3 34
0000c0 2c 26 0b 6e 12 46 4f d0 f1 7c 43 01 7f d5 d9 80
       44 38 11 110 18 70 79 -48 -15 124 67 1 127 -43 -39 -128
0000d0 1d ad 80 7f ab 87 68 4b f2 02 df 17 50 0a f5 80
       29 -83 -128 127 -85 -121 104 75 -14 2 -33 23 80 10 -11 -128
0000e0 11 ff da ef ce 23 0c 1a ee 22 f3 3e b6 0c 47 da
       17 -1 -38 -17 -50 35 12 26 -18 34 -13 62 -74 12 71 -38
0000f0 be d2 c4 f3 23 0a 0d 7f f5 7f 7f 27 ef 18 ee 34
       -66 -46 -60 -13 35 10 13 127 -11 127 127 39 -17 24 -18 52

mid_part.6.weight i1 [12, 12, 3, 3]
000000 1f c4 1e e4 23 f1 07 10 06 24 5d 31 21 04 70 fd
       31 -60 30 -28 35 -15 7 16 6 36 93 49 33 4 112 -3
000010 29 15 d6 af c0 1d 80 03 c7 13 2e fc ab 17 2b 80
       41 21 -42 -81 -64 29 -128 3 -57 19 46 -4 -85 23 43 -128
000020 05 95 1c 29 ff ae ce 16 d4 da bf fa e2 07 0a 08
       5 -107 28 41 -1 -82 -50 22 -44 -38 -65 -6 -30 7 10 8
000030 21 4e d3 15 f7 ef 04 00 14 38 7f fd 14 c0 3a 15
       33 78 -45 21 -9 -17 4 0 20 56 127 -3 20 -64 58 21
000040 2f df f6 1b 28 3c ff fe c7 cb ce ba 7f ea 23 fe
       47 -33 -10 27 40 60 -1 -2 -57 -53 -50 -70 127 -22 35 -2
000050 cd 02 7f 30 e6 72 ef 12 04 d4 19 ad 0b f4 3f f8
       -51 2 127 48 -26 114 -17 18 4 -44 25 -83 11 -12 63 -8
000060 80 3d e9 24 10 f6 7f aa d1 e4 d2 f8 b6 eb ff a7
       -128 61 -23 36 16 -10 127 -86 -47 -28 -46 -8 -74 -21 -1 -89
000070 a8 54 7f 5c 7f ef dc 0c ec fc 80 43 bc 51 80 80
       -88 84 127 92 127 -17 -36 12 -20 -4 -128 67 -68 81 -128 -128
000080 80 c5 88 2f 80 7f de b0 7c 31 3c 80 c1 80 7f 41
       -128 -59 -120 47 -128 127 -34 -80 124 49 60 -128 -63 -128 127 65
000090 80 6d 06 77 78 93 80 80 e2 dc e0 a2 0a 51 f2 1b
       -128 109 6 119 120 -109 -128 -128 -30 -36 -32 -94 10 81 -14 27
0000a0 bd b3 eb cf e3 56 e3 a2 ed 16 7f 52 75 27 80 4a
       -67 -77 -21 -49 -29 86 -29 -94 -19 22 127 82 117 39 -128 74
0000b0 df fc 31 f6 35 20 18 f6 80 05 80 31 92 50 7f 7f
       -33 -4 49 -10 53 32 24 -10 -128 5 -128 49 -110 80 127 127
0000c0 7f 7f 41 36 80 e4 d9 a3 54 f0 58 b2 80 ec 6b a9
       127 127 65 54 -128 -28 -39 -93 84 -16 88 -78 -128 -20 107 -87
0000d0 9c f1 0b 80 80 80 1b e1 e0 ed ef e8 73 be 20 15
       -100 -15 11 -128 -128 -128 27 -31 -32 -19 -17 -24 115 -66 32 21
0000e0 e8 04 f9 32 ca 5c d6 f7 05 08 db d6 b7 ef 33 c2
       -24 4 -7 50 -54 92 -42 -9 5 8 -37 -42 -73 -17 51 -62
0000f0 04 0f 01 0f 5c 05 cf dd 00 e0 f9 20 d8 18 26 3d
       4 15 1 15 92 5 -49 -35 0 -32 -7 32 -40 24 38 61

mid_part.9.weight i1 [12, 12, 3, 3]
000000 4b 7f 17 31 7f 24 20 05 3b c1 2b df 42 aa 93 19
       75 127 23 49 127 36 32 5 59 -63 43 -33 66 -86 -109 25
000010 0e d7 26 f1 f7 f9 2c 59 0e e7 e6 e4 24 eb 28 2a
       14 -41 38 -15 -9 -7 44 89 14 -25 -26 -28 36 -21 40 42
000020 15 22 eb 26 fb 5e 2b ba cb 59 e8 ab f6 e8 17 fd
       21 34 -21 38 -5 94 43 -70 -53 89 -24 -85 -10 -24 23 -3
000030 3a cb 0a 02 fd f7 e7 ec ef 48 fc dd e5 08 ee 0a
       58 -53 10 2 -3 -9 -25 -20 -17 72 -4 -35 -27 8 -18 10
000040 0e f4 62 d8 32 f1 30 01 d4 08 fd 16 b1 d4 e6 01
       14 -12 98 -40 50 -15 48 1 -44 8 -3 22 -79 -44 -26 1
000050 fb 12 ef 1c f2 4b 06 08 09 18 db da 1d 0f 62 0a
       -5 18 -17 28 -14 75 6 8 9 24 -37 -38 29 15 98 10
000060 f4 f1 09 ff 23 de 20 ef 80 33 15 f3 0b ba f2 93
       -12 -15 9 -1 35 -34 32 -17 -128 51 21 -13 11 -70 -14 -109
000070 73 fd 0b f9 02 49 1e 59 24 9e b8 12 dc a9 d3 16
       115 -3 11 -7 2 73 30 89 36 -98 -72 18 -36 -87 -45 22
000080 01 cf 7f e2 1c 1b 07 08 d9 11 2e 13 ff 21 32 05
       1 -49 127 -30 28 27 7 8 -39 17 46 19 -1 33 50 5
000090 d9 21 e6 cb 7f 06 f6 e0 04 15 0d 09 1d d4 13 ea
       -39 33 -26 -53 127 6 -10 -32 4 21 13 9 29 -44 19 -22
0000a0 d3 2c 05 e7 21 f4 b6 05 e3 a3 f0 11 e3 0a 7f 29
       -45 44 5 -25 33 -12 -74 5 -29 -93 -16 17 -29 10 127 41
0000b0 fe 0c 11 0f f8 14 f1 1f 7f 61 da e8 cf 05 0d ef
       -2 12 17 15 -8 20 -15 31 127 97 -38 -24 -49 5 13 -17
0000c0 e6 51 0c 32 4c 1c de 0c 0d ee 1e 00 f8 fd 04 4d
       -26 81 12 50 76 28 -34 12 13 -18 30 0 -8 -3 4 77
0000d0 00 1d fa 7f 0a 09 56 12 27 cd dd 7c a5 2d 44 79
       0 29 -6 127 10 9 86 18 39 -51 -35 124 -91 45 68 121
0000e0 01 47 d3 13 84 6d b4 19 93 ae ba 54 c7 31 cf 9b
       1 71 -45 19 -124 109 -76 25 -109 -82 -70 84 -57 49 -49 -101
0000f0 0f fa e4 21 d3 ec 0b 7f d6 a2 7f c7 d9 fb cf f1
       15 -6 -28 33 -45 -20 11 127 -42 -94 127 -57 -39 -5 -49 -15

mid_part.12.weight i1 [12, 12, 3, 3]
000000 e9 ec 3a f0 d0 c0 47 7f 39 1a 21 24 d7 7f 92 eb
       -23 -20 58 -16 -48 -64 71 127 57 26 33 36 -41 127 -110 -21
000010 b3 01 24 2d 38 3e 92 c5 06 d1 03 06 04 fe 4f a4
       -77 1 36 45 56 62 -110 -59 6 -47 3 6 4 -2 79 -92
000020 d5 e7 2d 06 fc 1d 09 fe c3 89 15 61 40 23 b6 e7
       -43 -25 45 6 -4 29 9 -2 -61 -119 21 97 64 35 -74 -25
000030 fc 7f ef 1d 33 f2 e6 64 f5 e5 7f f8 a5 cd 1f 25
       -4 127 -17 29 51 -14 -26 100 -11 -27 127 -8 -91 -51 31 37
000040 12 ee ab 7f 50 fd 61 a2 ec 80 0b 7f 36 09 c3 f3
       18 -18 -85 127 80 -3 97 -94 -20 -128 11 127 54 9 -61 -13
000050 1c 0c 14 dd 7f 7f 76 1c dd eb fb d6 ea b2 7f 09
       28 12 20 -35 127 127 118 28 -35 -21 -5 -42 -22 -78 127 9
000060 14 b4 eb bc de 0b ee 2a f3 fa fc fb 80 c9 23 80
       20 -76 -21 -68 -34 11 -18 42 -13 -6 -4 -5 -128 -55 35 -128
000070 9f dc 7f 28 da 68 0e f0 80 7f 12 12 dd d1 ad 2e
       -97 -36 127 40 -38 104 14 -16 -128 127 18 18 -35 -47 -83 46
000080 4d 80 ec a6 80 03 2b a6 28 f3 80 bb f8 fe 3a 1f
       77 -128 -20 -90 -128 3 43 -90 40 -13 -128 -69 -8 -2 58 31
000090 13 1f f5 37 7f f7 51 66 32 7f e6 2f 02 43 e0 80
       19 31 -11 55 127 -9 81 102 50 127 -26 47 2 67 -32 -128
0000a0 06 07 b6 b1 ed 80 59 f2 74 ae 19 7f f0 d7 80 7f
       6 7 -74 -79 -19 -128 89 -14 116 -82 25 127 -16 -41 -128 127
0000b0 20 cc d7 ca ea 3c 03 80 7f 05 7f d3 f2 d5 ff fa
       32 -52 -41 -54 -22 60 3 -128 127 5 127 -45 -14 -43 -1 -6
0000c0 89 7f 0d 50 21 2d ae 05 22 7f ff 17 c1 ff fc 12
       -119 127 13 80 33 45 -82 5 34 127 -1 23 -63 -1 -4 18
0000d0 d9 fd 80 7f 0b 0f fe ed 35 80 7f 7f c3 7f 6e 7f
       -39 -3 -128 127 11 15 -2 -19 53 -128 127 127 -61 127 110 127
0000e0 b5 6b 7f 3e 80 3c 8b 02 80 be 80 eb 22 80 7f b4
       -75 107 127 62 -128 60 -117 2 -128 -66 -128 -21 34 -128 127 -76
0000f0 9d f2 4c ec fe a8 94 ec fc 2e 32 15 d2 f7 7f 69
       -99 -14 76 -20 -2 -88 -108 -20 -4 46 50 21 -46 -9 127 105

mid_part.15.weight i1 [16, 12, 1, 1]
000000 37 20 e4 a4 fd 19 f7 d8 04 02 15 46 dd f4 35 22
       55 32 -28 -92 -3 25 -9 -40 4 2 21 70 -35 -12 53 34
000010 b3 42 37 03 ff 04 df 88 d9 f8 f9 e0 f2 df 08 e6
       -77 66 55 3 -1 4 -33 -120 -39 -8 -7 -32 -14 -33 8 -26
000020 05 08 16 da 44 fc 3e fd 80 16 25 17 ff fc f3 1c
       5 8 22 -38 68 -4 62 -3 -128 22 37 23 -1 -4 -13 28
000030 03 0b 0a ff d6 42 2e 04 e6 04 d7 16 a7 00 95 55
       3 11 10 -1 -42 66 46 4 -26 4 -41 22 -89 0 -107 85
000040 0a b6 76 06 f6 01 df 13 73 fc 1e 53 c7 84 67 f0
       10 -74 118 6 -10 1 -33 19 115 -4 30 83 -57 -124 103 -16
000050 f8 02 f6 1d ea 7f dd 07 f7 fc 18 e5 10 ff e8 e0
       -8 2 -10 29 -22 127 -35 7 -9 -4 24 -27 16 -1 -24 -32
000060 0b a7 49 e2 17 5e e4 27 01 ff 06 c8 b5 fa 14 2c
       11 -89 73 -30 23 94 -28 39 1 -1 6 -56 -75 -6 20 44
000070 03 21 26 d2 fc 06 e7 ad f7 16 e5 05 10 d4 fb 0a
       3 33 38 -46 -4 6 -25 -83 -9 22 -27 5 16 -44 -5 10
000080 03 7f 1c 20 98 13 d8 f5 d2 28 18 e6 7f 03 ca 26
       3 127 28 32 -104 19 -40 -11 -46 40 24 -26 127 3 -54 38
000090 dc 03 21 68 fe ca 01 da f8 48 d9 ff 2b e5 18 1f
       -36 3 33 104 -2 -54 1 -38 -8 72 -39 -1 43 -27 24 31
0000a0 21 0c 4f f6 03 02 02 f9 2a 2a d6 e0 d5 ab a2 ec
       33 12 79 -10 3 2 2 -7 42 42 -42 -32 -43 -85 -94 -20
0000b0 07 00 18 6a 14 f8 f3 7f fe 00 e9 1e 57 02 17 20
       7 0 24 106 20 -8 -13 127 -2 0 -23 30 87 2 23 32

last_part.weight i1 [16, 1, 9, 9]
000000 07 06 03 03 08 0e 0b 0a 05 05 03 03 07 0f 17 10
       7 6 3 3 8 14 11 10 5 5 3 3 7 15 23 16
000010 0a 04 02 02 03 06 07 0b 02 fc fe 01 01 01 fd f8
       10 4 2 2 3 6 7 11 2 -4 -2 1 1 1 -3 -8
000020 f8 f7 f4 f9 fe fe fa f2 f7 06 0e 09 03 ff 01 02
       -8 -9 -12 -7 -2 -2 -6 -14 -9 6 14 9 3 -1 1 2
000030 ff 14 32 41 34 15 02 05 07 08 19 3e 53 47 21 07
       -1 20 50 65 52 21 2 5 7 8 25 62 83 71 33 7
000040 0a 0b 0c 1a 35 45 3c 1e 00 03 05 07 0e 14 17 14
       10 11 12 26 53 69 60 30 0 3 5 7 14 20 23 20
000050 0f 04 04 03 ff fc fd fc fc fe 02 04 04 fe fc ff
       15 4 4 3 -1 -4 -3 -4 -4 -2 2 4 4 -2 -4 -1
000060 ff fc fe ff 02 02 fe 01 05 05 fc fe f9 f9 fb 02
       -1 -4 -2 -1 2 2 -2 1 5 5 -4 -2 -7 -7 -5 2
000070 0e 0e 06 f9 f9 f1 ee f7 10 29 17 f9 ea f3 ee ea
       14 14 6 -7 -7 -15 -18 -9 16 41 23 -7 -22 -13 -18 -22
000080 f9 21 35 09 dd de f8 f2 f0 02 25 2a f6 d1 e3 06
       -7 33 53 9 -35 -34 -8 -14 -16 2 37 42 -10 -47 -29 6
000090 f5 f8 08 1e 17 f1 dd ef 09 f7 fb 07 11 0a f9 f3
       -11 -8 8 30 23 -15 -35 -17 9 -9 -5 7 17 10 -7 -13
0000a0 fc 06 e0 1c 0c 20 17 e0 06 1a e6 ea 17 ef ed f6
       -4 6 -32 28 12 32 23 -32 6 26 -26 -22 23 -17 -19 -10
0000b0 db de eb 14 0e c9 30 08 1f cb 1f 15 27 e8 f0 1e
       -37 -34 -21 20 14 -55 48 8 31 -53 31 21 39 -24 -16 30
0000c0 3d 34 28 06 06 d3 1b 1c fb 33 36 e0 26 00 28 27
       61 52 40 6 6 -45 27 28 -5 51 54 -32 38 0 40 39
0000d0 1e 37 2d 3e fb 18 1a 28 22 2c f8 2b 38 f4 2a 2d
       30 55 45 62 -5 24 26 40 34 44 -8 43 56 -12 42 45
0000e0 08 2c 0f e8 d0 e5 17 fe d3 38 f0 dc 38 3b fc 3b
       8 44 15 -24 -48 -27 23 -2 -45 56 -16 -36 56 59 -4 59
0000f0 05 18 0f ff 02 05 07 08 0b 0c 08 03 fe 00 05 07
       5 24 15 -1 2 5 7 8 11 12 8 3 -2 0 5 7
